…
put_peak_number, main_output])\n","\n","\n","# summarize layers\n","print(model.summary())\n","\n","# plot graph\n","plot_model(model, to_file='shared_input_layer.png')"],"execution_count":35,"outputs":[{"output_type":"stream","text":["Model: \"model_4\"\n","__________________________________________________________________________________________________\n","Layer (type)                    Output Shape         Param #     Connected to                     \n","==================================================================================================\n","input_4 (InputLayer)            (None, 1500, 1)      0                                            \n","__________________________________________________________________________________________________\n","conv1d_8 (Conv1D)               (None, 1401, 64)     6464        input_4[0][0]                    \n","__________________________________________________________________________________________________\n","max_pooling1d_8 (MaxPooling1D)  (None, 700, 64)      0           conv1d_8[0][0]                   \n","__________________________________________________________________________________________________\n","batch_normalization_6 (BatchNor (None, 700, 64)      256         max_pooling1d_8[0][0]            \n","__________________________________________________________________________________________________\n","conv1d_9 (Conv1D)               (None, 651, 32)      102432      batch_normalization_6[0][0]      \n","__________________________________________________________________________________________________\n","max_pooling1d_9 (MaxPooling1D)  (None, 325, 32)      0           conv1d_9[0][0]                   \n","__________________________________________________________________________________________________\n","batch_normalization_7 (BatchNor (None, 325, 32)      128         max_pooling1d_9[0][0]            \n","__________________________________________________________________________________________________\n","conv1d_10 (Conv1D)              (None, 301, 16)      12816       batch_normalization_7[0][0]      \n","__________________________________________________________________________________________________\n","max_pooling1d_10 (MaxPooling1D) (None, 150, 16)      0           conv1d_10[0][0]                  \n","__________________________________________________________________________________________________\n","batch_normalization_8 (BatchNor (None, 150, 16)      64          max_pooling1d_10[0][0]           \n","__________________________________________________________________________________________________\n","global_max_pooling1d_4 (GlobalM (None, 16)           0           batch_normalization_8[0][0]      \n","__________________________________________________________________________________________________\n","dense_7 (Dense)                 (None, 50)           850         global_max_pooling1d_4[0][0]     \n","__________________________________________________________________________________________________\n","area (Dense)                    (None, 1)            51          dense_7[0][0]                    \n","__________________________________________________________________________________________________\n","peak_number (Dense)             (None, 1)            51          dense_7[0][0]                    \n","__________________________________________________________________________________________________\n","concatenate_4 (Concatenate)     (None, 18)           0           area[0][0]                       \n","                                                                 peak_number[0][0]                \n","                                                                 global_max_pooling1d_4[0][0]     \n","__________________________________________________________________________________________________\n","batch_normalization_9 (BatchNor (None, 18)           72          concatenate_4[0][0]              \n","__________________________________________________________________________________________________\n","dense_8 (Dense)                 (None, 50)           950         batch_normalization_9[0][0]      \n","__________________________________________________________________________________________________\n","main_output (Dense)             (None, 15)           765         dense_8[0][0]                    \n","==================================================================================================\n","Total params: 124,899\n","Trainable params: 124,639\n","Non-trainable params: 260\n","__________________________________________________________________________________________________\n","None\n"],"name":"stdout"},{"output_type":"execute_result","da
…
